…
1875/1875 [==============================] - 17s 9ms/step - loss: 0.0122 - val_loss: 0.0118
Epoch 49/50
1875/1875 [==============================] - 16s 9ms/step - loss: 0.0121 - val_loss: 0.0116
Epoch 50/50
1875/1875 [==============================] - 15s 8ms/step - loss: 0.0119 - val_loss: 0.0114
Model: "model_47"
_________________________________________________________________
 Layer (type)                Output Shape              Param #   
=================================================================
 input_48 (InputLayer)       [(None, 28, 28)]          0         
                                                                 
 flatten_47 (Flatten)        (None, 784)               0         
                                                                 
 dense_132 (Dense)           (None, 392)               307720    
                                                                 
 dense_133 (Dense)           (None, 196)               77028     
                                                                 
 dense_134 (Dense)           (None, 392)               77224     
                                                                 
 dense_135 (Dense)           (None, 784)               308112    
                                                                 
 reshape_47 (Reshape)        (None, 28, 28)            0         
                                                                 
=================================================================
Total params: 770,084
Trainable params: 770,084
Non-trainable params: 0
_________________________________________________________________
Epoch 1/50
1875/1875 [==============================] - 21s 11ms/step - loss: 0.0774 - val_loss: 0.0607
Epoch 2/50
1875/1875 [==============================] - 20s 11ms/step - loss: 0.0549 - val_loss: 0.0493
…
1875/1875 [==============================] - 19s 10ms/step - loss: 0.0086 - val_loss: 0.0082
Epoch 49/50
1875/1875 [==============================] - 19s 10ms/step - loss: 0.0085 - val_loss: 0.0081
Epoch 50/50
1875/1875 [==============================] - 19s 10ms/step - loss: 0.0084 - val_loss: 0.0080
Model: "model_48"
_________________________________________________________________
 Layer (type)                Output Shape              Param #   
=================================================================
 input_49 (InputLayer)       [(None, 28, 28)]          0         
                                                                 
 flatten_48 (Flatten)        (None, 784)               0         
                                                                 
 dense_136 (Dense)           (None, 392)               307720    
                                                                 
 dense_137 (Dense)           (None, 196)               77028     
                                                                 
 dense_138 (Dense)           (None, 98)                19306     
                                                                 
 dense_139 (Dense)           (None, 196)               19404     
                                                                 
 dense_140 (Dense)           (None, 392)               77224     
                                                                 
 dense_141 (Dense)           (None, 784)               308112    
                                                                 
 reshape_48 (Reshape)        (None, 28, 28)            0         
                                                                 
=================================================================
Total params: 808,794
Trainable params: 808,794
Non-trainable params: 0
_________________________________________________________________
Epoch 1/50
1875/1875 [==============================] - 21s 11ms/step - loss: 0.0749 - val_loss: 0.0612
Epoch 2/50
1875/1875 [==============================] - 21s 11ms/step - loss: 0.0539 - val_loss: 0.0472
…
