…
1875/1875 [==============================] - 20s 11ms/step - loss: 0.1050 - val_loss: 0.0264
Epoch 49/50
1875/1875 [==============================] - 21s 11ms/step - loss: 0.1045 - val_loss: 0.0260
Epoch 50/50
1875/1875 [==============================] - 19s 10ms/step - loss: 0.1041 - val_loss: 0.0256
Model: "model_2"
_________________________________________________________________
 Layer (type)                Output Shape              Param #   
=================================================================
 input_3 (InputLayer)        [(None, 28, 28)]          0         
                                                                 
 flatten_2 (Flatten)         (None, 784)               0         
                                                                 
 dense_6 (Dense)             (None, 392)               307720    
                                                                 
 dense_7 (Dense)             (None, 196)               77028     
                                                                 
 dense_8 (Dense)             (None, 98)                19306     
                                                                 
 dense_9 (Dense)             (None, 196)               19404     
                                                                 
 dense_10 (Dense)            (None, 392)               77224     
                                                                 
 dense_11 (Dense)            (None, 784)               308112    
                                                                 
 reshape_2 (Reshape)         (None, 28, 28)            0         
                                                                 
=================================================================
Total params: 808,794
Trainable params: 808,794
Non-trainable params: 0
_________________________________________________________________