…
1875/1875 [==============================] - 16s 8ms/step - loss: 0.1012 - val_loss: 0.0610
Epoch 49/50
1875/1875 [==============================] - 15s 8ms/step - loss: 0.1006 - val_loss: 0.0608
Epoch 50/50
1875/1875 [==============================] - 15s 8ms/step - loss: 0.0999 - val_loss: 0.0604
Model: "model_1"
_________________________________________________________________
 Layer (type)                Output Shape              Param #   
=================================================================
 input_2 (InputLayer)        [(None, 28, 28)]          0         
                                                                 
 flatten_1 (Flatten)         (None, 784)               0         
                                                                 
 dense_2 (Dense)             (None, 392)               307720    
                                                                 
 dense_3 (Dense)             (None, 196)               77028     
                                                                 
 dense_4 (Dense)             (None, 392)               77224     
                                                                 
 dense_5 (Dense)             (None, 784)               308112    
                                                                 
 reshape_1 (Reshape)         (None, 28, 28)            0         
                                                                 
=================================================================
Total params: 770,084
Trainable params: 770,084
Non-trainable params: 0
_________________________________________________________________
Epoch 1/50
1875/1875 [==============================] - 20s 11ms/step - loss: 0.1596 - val_loss: 0.0865
Epoch 2/50
1875/1875 [==============================] - 23s 12ms/step - loss: 0.1496 - val_loss: 0.0831
…
1875/1875 [==============================] - 20s 11ms/step - loss: 0.1050 - val_loss: 0.0264
Epoch 49/50
1875/1875 [==============================] - 21s 11ms/step - loss: 0.1045 - val_loss: 0.0260
Epoch 50/50
1875/1875 [==============================] - 19s 10ms/step - loss: 0.1041 - val_loss: 0.0256
Model: "model_2"
_________________________________________________________________
 Layer (type)                Output Shape              Param #   
=================================================================
 input_3 (InputLayer)        [(None, 28, 28)]          0         
                                                                 
 flatten_2 (Flatten)         (None, 784)               0         
                                                                 
 dense_6 (Dense)             (None, 392)               307720    
                                                                 
 dense_7 (Dense)             (None, 196)               77028     
                                                                 
 dense_8 (Dense)             (None, 98)                19306     
                                                                 
 dense_9 (Dense)             (None, 196)               19404     
                                                                 
 dense_10 (Dense)            (None, 392)               77224     
                                                                 
 dense_11 (Dense)            (None, 784)               308112    
                                                                 
 reshape_2 (Reshape)         (None, 28, 28)            0         
                                                                 
=================================================================
Total params: 808,794
Trainable params: 808,794
Non-trainable params: 0
_________________________________________________________________
Epoch 1/50
1875/1875 [==============================] - 16s 8ms/step - loss: 0.1574 - val_loss: 0.0835
Epoch 2/50
1875/1875 [==============================] - 16s 8ms/step - loss: 0.1491 - val_loss: 0.0800
…
